model_cnn.pth (torch, 435171 bytes, 8 tensors)

conv1.weight f4 [6, 3, 5, 5]
00000000: 7cd6 d43c 50d7 453d f711 953d c703 0cbd
00000010: ad5b 98bd 6485 eebc 473f 8dbc 0175 653c
00000020: aee5 c33b c582 6dbc f5b9 1f3e 71c8 64bc
00000030: 5b74 c0bd 2d8f 37be 092e 133e b556 cb3d
00000040: 0ad5 673e f078 58be 6e63 a0be fa81 253e
00000050: 888a 123e 2ef4 1b3d a101 02be 706a 55be
00000060: 813c 403e 6cf4 e9bd a1d7 6a3d a5d3 dbbd
00000070: 71c7 a63d 3f14 4d3c 3376 7f3d ac70 16bd
00000080: 5b74 c3bd 726e 5a3c 59b7 043e 03a8 013d
00000090: 8de4 a43d eb86 6bbe b285 48be 94b4 6e3e
000000a0: 193f 033e 9b9a ea3d 6321 9bbe 639d 7bbe
000000b0: f730 0d3e 518a dd3d 627e 383e 57ae 153d
000000c0: 8316 76be 7667 063e ad72 623d 9a6a aebd
000000d0: 120e 913d 5bc3 e5bd 8ac1 9f3d 6dd6 2e3d
000000e0: e85e b6bc 19af 93bd 68fa cabd e297 fc3d
000000f0: fbf7 213d b7fd 2b3e 0337 88be f5b9 73bd
00000100: 6383 193e a961 ae3d 2d69 553d 4e3f dabd
00000110: b7b7 8bbe 197d 5d3e 2f35 12bc 32dd 0e3e
00000120: 708b 90bc 9565 25be aca2 3e3d cdb2 e9bd
00000130: 6999 af3c df79 5d3d ba98 a13c 0349 c13c
00000140: 2bbd 593d be35 213e 89e3 fd3d d65f 9f3d
00000150: d511 143d eeba 18bc 01a0 183d 4399 2cbd
00000160: aba5 da3c eed0 5c3d 3070 223d 2033 7b3d
00000170: 7dba 7e3d 4164 7a3d fb94 8a3d 6d29 823c
00000180: d7e2 e93d e8b0 d53d acd4 a63d dd49 e03d
00000190: 994d 04bd aec7 d1bc 3d4f 993c b76a 73bd
000001a0: d57d 38be e55a 95bd 6432 86bc 14de 223d
000001b0: 31f8 b63c 720d d6bd c9f6 c9bc 4902 cebd
000001c0: a67c 4abe 1252 07be 7ae4 a3bd f598 59be
000001d0: 1b29 56be c3ca 80be 6370 10be 271a 6c3d
000001e0: fd92 9fbd 865e 60be b9d7 3ebe 8809 0d3d
000001f0: 463f d53c a34a 843d 155c 573e 8575 1b3e
00000200: aac1 1a3d ae88 26bd 14b6 d73c 8a66 373e
00000210: 9a17 143e 27d3 313e 1477 c63d ce08 053e
00000220: 0f14 763c c059 983d 2b1b 1c3d 5ccf 523d
00000230: 65bc 7e3d ed07 0abe b04f 293d fba7 433c
00000240: f510 ffbc 1078 3ebd fefc 463d 8334 cd3d
00000250: 41b7 41bd 92fc 373d 7ef2 2abe 5c0a 11bd
00000260: 9dc8 69bd 78ae 76bd 5364 c5bc 8b5d 41bd
00000270: ba03 b2bd 8dc3 afbd edf6 55bd 353c f3bd
00000280: b0d7 763c 92b1 2ebd d2cb 27bc 7fe8 e7bd
00000290: 3ab4 2f3c c126 723d bb01 9d3d 9bde d23c
000002a0: 801e 443c 8ff2 8e3d 3e96 af3d 8332 853a
000002b0: 2441 a6bd b001 5bbd 6cdc f0bb 55b6 10bd
000002c0: 77a1 36bd 257b 78bd 86f7 543d 559d 30bd
000002d0: 29f0 54bd 7c27 fe3d cffb c83b ff51 8b3d
000002e0: 0010 d73c 3e91 8b3d 65f5 e23d 39ca ce3d
000002f0: 9862 ca3d b3a6 1a3d d747 5fbd 2d72 773c
00000300: 3dbc 8c3d 0548 763d f2f2 013d 198a 873d
00000310: 2b57 db3d 09bf 023e f9e6 633d 8827 8cbd
00000320: 1ecc 6c3d b4ab 363d fea2 733d a61c 7e3b
00000330: 532b ae3d 7390 833d cd5d 983c cac9 163e
00000340: 8108 253d 0825 cd3d 5544 02bd 1561 d93d
00000350: d052 003e c3b9 fd3d 13ed 0fbd c9f3 833d
00000360: cf34 893c 8f89 9c3d 7b95 693c b8ac fbbd
00000370: bf40 223b 0395 423d 2e61 113e b874 d83d
00000380: 76c8 853c cf3a a83d 0714 a6bc 182d 6f3e
00000390: 1caf 843e bd24 693e 5f6e 6b3d 4fcf e83d
000003a0: 5f74 623e dd8c 813e 53d3 953e dec8 8abd
000003b0: 5e84 d5bd 639c 583b b78c b23d 20e0 443d
000003c0: 5f11 04be 96a0 94bd 774d 453d 9402 263d
000003d0: f9e6 153c c850 f3bd 2d48 54be 6422 b8bd
000003e0: 008e 2dbd aaee 203c 1d35 6fbd 7f3c d6bd
000003f0: beb1 28be 5692 30be 25ea 79be 519c 9fbd
0.02598118 0.04830104 0.07278817 -0.03418329 -0.07439361 -0.02911634 -0.017242087 0.014004947
0.0059783077 -0.01449651 0.1559828 -0.013963805 -0.09397193 -0.17925711 0.1437303 0.099286474
0.22639862 -0.21139884 -0.3132586 0.16162863 0.14310658 0.038074665 -0.12695934 -0.20841384
0.1877308 -0.11423573 0.057334546 -0.10733727 0.08143509 0.012517034 0.062368583 -0.036728546
-0.095436774 0.013331996 0.12960567 0.03165437 0.08051405 -0.23000686 -0.1958225 0.23311073
0.12817039 0.1145527 -0.3029891 -0.24571757 0.1378821 0.108173974 0.18016961 0.036543217
-0.24032025 0.13125405 0.055285145 -0.085164264 0.07082762 -0.11218902 0.078005865 0.04268496
-0.022262052 -0.072111316 -0.099110425 0.12333657 0.039543133 0.16796003 -0.2660447 -0.059503514
0.14991526 0.08514721 0.052102257 -0.10656606 -0.272886 0.21629752 -0.008923813 0.13951567
-0.017644614 -0.16152032 0.046541855 -0.11411057 0.021435456 0.054071303 0.019726146 0.023594385
0.05315892 0.15743157 0.123969145 0.07781951 0.03614982 -0.009321911 0.037261967 -0.04213835
0.026690325 0.05391019 0.03965777 0.061328053 0.062189568 0.061130766 0.06766697 0.015888894
0.114202194 0.10434133 0.08146033 0.10951588 -0.032300565 -0.02560791 0.018714542 -0.059427943
-0.18016751 -0.072927274 -0.01638145 0.03976257 0.022335144 -0.10451783 -0.02465381 -0.100590296
-0.19774112 -0.13214901 -0.08002563 -0.21249755 -0.20914118 -0.25154695 -0.14105372 0.05764213
-0.07791708 -0.21911058 -0.18636979 0.034432918 0.026031148 0.06459548 0.2103122 0.15181549
0.03778235 -0.04065769 0.026331939 0.1791021 0.14462128 0.17365704 0.09690681 0.1299164
0.015019431 0.074389935 0.038111847 0.051467285 0.062191386 -0.13479586 0.04133576 0.011941905
-0.031136015 -0.04650122 0.048581116 0.100197814 -0.047293905 0.044918604 -0.16694066 -0.03541027
-0.057076085 -0.06022498 -0.02409569 -0.04720835 -0.08692117 -0.0858222 -0.05223744 -0.11876718
0.015066072 -0.042649813 -0.010241466 -0.11323642 0.010724122 0.05911899 0.07666346 0.025740912
0.011970162 0.06979858 0.08573578 0.0010162148 -0.08117893 -0.053468406 -0.007350495 -0.035330135
-0.04458758 -0.060664315 0.05199387 -0.043118794 -0.051986847 0.12409875 0.0061335335 0.06802749
0.026252747 0.06814812 0.110819615 0.10097165 0.098820865 0.037756633 -0.05451187 0.015102905
0.06871841 0.060127277 0.03172583 0.06618137 0.10709985 0.12768187 0.055640195 -0.068434775
0.05781185 0.044597343 0.059481613 0.00387744 0.08504357 0.06424036 0.018599415 0.14725414
0.040291313 0.10016829 -0.031803448 0.1061422 0.1253159 0.12388947 -0.0351382 0.06442983
0.016748814 0.07643425 0.01425683 -0.12288803 0.002475783 0.04750539 0.14197227 0.10569137
0.016330939 0.08214342 -0.020273222 0.23357046 0.25914848 0.22767921 0.057478305 0.11367666
0.22114705 0.25302783 0.2926279 -0.067765936 -0.10425638 0.0033052198 0.087182455 0.048065305
-0.12897252 -0.07257192 0.04816958 0.040529802 0.009149306 -0.11880642 -0.20730658 -0.089909345
-0.04237175 0.009822527 -0.058400262 -0.104607575 -0.16474053 -0.17243323 -0.24405725 -0.07793487

conv1.bias f4 [6]
00000000: 20fc 03bc 14c7 a3bd bcca 79be 5623 e73c
00000010: 4f8a a53d 918c cbbd
-0.008055717 -0.079969555 -0.24393743 0.028215092 0.08083021 -0.0993892

conv2.weight f4 [16, 6, 5, 5]
00000000: 180c 643d 3b8e cf3b 4fde c9bd bf5a 75bd
00000010: c654 3ebd 3e5a 1bbc 88de c23b b41e 32bd
00000020: 658b 10be 4ef0 b6bd 0620 dcbb 2375 073c
00000030: db55 56ba fff4 edbd 2aa0 12be 072a a7bc
00000040: fec5 43bc 4b82 19bd 19b7 a6bd 350d 3dbd
00000050: 8e1a bbbd 3c3b 0d3c 620e 2abd c689 18bd
00000060: cffc e5bc aa50 a4bc 3dea 58bd 7627 febc
00000070: ba7a c53c 1950 713b 8f6a 3b3c 6551 90bd
00000080: eb09 d6bc e027 073c 4128 6c3d 40a3 a63d
00000090: 021f 7c3d 54e1 40bd 4a78 8ebd c875 64bc
000000a0: 5c63 b23d 6a33 083e 498d b43d 8361 c2bd
000000b0: 774c 33bd 1b58 d23c 6005 443d c4bf d93d
000000c0: 2c7a bebd 3390 4dbd f8ec a23d 3c4b 2cbc
000000d0: de5e dcbc 3f10 00be 48f2 9dbc 2454 0c3e
000000e0: e775 a53d 50e2 2bbd 3e76 16be 6703 ffbd
000000f0: ca04 533e 2b5f 0e3e a4f3 12bd 3aea 2dbe
00000100: c7dc 1ebe e55c 7a3e a540 103e b7ee 27bc
00000110: a047 16be 46d3 15be b857 663e 9719 0e3e
00000120: ec3c 223d 4c58 0ebe d66f 44be 5806 bb3e
00000130: d6d2 143e 4b2d e2bc 444b dfba b02a 87bd
00000140: 4abc 6a3e 020b 013e 279e f0bd 0e08 49be
00000150: 80c1 1abe 61a7 6e3d 98e7 083e bca8 503d
00000160: 617c ebbd ad43 febd 482f 06bd be0e 05bd
00000170: 3568 6a3d 54e0 a6bc b4de 04be de9e c13c
00000180: 5d7d 713c 3471 2f3e 303c 063e 0967 c93d
00000190: e6c7 6c3d 7747 873c 32ba 16bd a0c4 16be
000001a0: 1d7e 00be 1b9c 893e 59ab ee3d ebe4 2cbe
000001b0: e783 5bbe 25d0 d5be 0215 963e 6135 5d3e
000001c0: b899 c3bd 6fcc 45be 21e1 f9be 002c 893e
000001d0: 2a4b a03e 8720 ceba 220b 13be 0df5 bfbe
000001e0: 3aaf 823e e594 163e 29b9 843c 7571 9cbd
000001f0: 763c 87be b87a f43a 874b cbbd b0b1 d73b
00000200: 01e4 d93d e58b ad3d 7a97 81be daf9 8fbd
00000210: ca09 983c e109 ac3c f6be 513e e5df 87be
00000220: 16a4 43be ee00 31bd ab94 1d3e b01f 743e
00000230: 9ed7 96be e7ec 88bd e0ea 4abd 5ede 423e
00000240: dfd4 303e b1ce 0ebe bb15 b9bd 3294 80bd
00000250: 7c2c d43d e004 ef3d ae42 7abd b5cf a1bd
00000260: 3c7a 053d 5f4a 04be 7d58 66be 3c95 abbb
00000270: abc8 103e 3f8a 03be 6ed4 2dbe b29e e23d
00000280: 3358 d8bb 5e17 61be 4217 a3be 8e2c 1e3d
00000290: 3155 553e cebe 4cbd 7d2f 8ebc b91d 833e
000002a0: da58 7b3e 0eb5 4dbe b1e2 3a3d 6a86 58ba
000002b0: 363a 953c effc 33bd 1f25 8c3d 5a54 6cbd
000002c0: 032e 3ebc fd85 7d3c b3aa be3c f05b a93d
000002d0: 29b1 3a3d 9f9c 833d e614 793e 60f5 373d
000002e0: 160e aa3d 8919 a03d 2f78 1abd 7b15 a9be
000002f0: 3cf6 a8be b48e 4e3d e45f c8bd b42d 27be
00000300: 6192 443e fa3b d93e 3c7f 6b3e 7c38 7cba
00000310: b267 b03d a39d e03c d50a 82be ea72 70be
00000320: f9b2 5c3d b8c2 ef3a ddd1 3cbc 5d87 4d3d
00000330: 61da af3c 53de d3bc 6922 80bc 5ae4 f4bb
00000340: 5a83 763d 5d35 02bd 3dfb bbbb 71ad ac3d
00000350: 5d63 d73d ebf6 3b3d 999b 4ebe fc56 8ebb
00000360: a1ea c53d 3500 b0bd 0e51 b7be 66f2 e7bd
00000370: 856a 7d3d 38c9 0cbe 3801 23be 9a52 633d
00000380: 5ac0 8a3e 9366 213e 3cc8 4b3e 52b7 9f3c
00000390: 69ca 7d3c c148 3f3e cc1e fd3d 9ee8 14be
000003a0: 4660 cabd 5147 18bd f144 043e 683b a0bd
000003b0: ce6f f9bd dd97 b43d 3102 923e a66d 213e
000003c0: fd02 ea3d eee5 7e3e 7b7d 643e f697 183e
000003d0: 51cc 38be d5fc 7fbd d72f 12be 7b49 9fbe
000003e0: 1bf3 08bf 5d0b 08bf 8d19 77bd e360 c6bd
000003f0: 028d e63b 3a05 aabd 9a90 5bbc 7eca 5cbd
0.055675596 0.006334094 -0.09856855 -0.059900995 -0.046467565 -0.009481965 0.005946938 -0.043486312
-0.14115675 -0.08932553 -0.0067176847 0.008267674 -0.00081762456 -0.11618995 -0.1431891 -0.020405782
-0.0119490605 -0.037477773 -0.08140392 -0.046155173 -0.09135924 0.00862008 -0.041517623 -0.037240766
-0.02807465 -0.020057995 -0.052957762 -0.031024676 0.024106372 0.0036821424 0.01143898 -0.07046775
-0.026127776 0.008249253 0.057655577 0.08136606 0.06155301 -0.04708989 -0.06956537 -0.013944097
0.087103575 0.13300863 0.088160105 -0.09491255 -0.043774094 0.025676778 0.04785669 0.106322795
-0.09300646 -0.050186347 0.079553545 -0.010515984 -0.026900705 -0.12506197 -0.019280568 0.13703972
0.08079129 -0.041963875 -0.14693543 -0.12451821 0.20607296 0.13903491 -0.035876885 -0.16983882
-0.15513907 0.24449499 0.1408716 -0.010249785 -0.1467576 -0.14631376 0.224944 0.13876949
0.03960888 -0.1390087 -0.19183287 0.36528277 0.14533553 -0.027609488 -0.0017035981 -0.06599939
0.22923389 0.12601855 -0.11748915 -0.19631979 -0.15112877 0.058265094 0.13369596 0.050942168
-0.11498333 -0.12415252 -0.032759935 -0.032484762 0.057228286 -0.02037064 -0.1297558 0.023635324
0.014739362 0.17133027 0.13108897 0.098341055 0.057807826 0.01651357 -0.036798663 -0.14723444
-0.12548108 0.26876912 0.11653776 -0.168842 -0.21437036 -0.41760364 0.29312903 0.21602394
-0.09550804 -0.19316266 -0.48804572 0.26791382 0.31307346 -0.0015726247 -0.14359716 -0.37491646
0.25524312 0.14705236 0.016201572 -0.07638828 -0.26413316 0.0018652296 -0.09926515 0.0065824613
0.106391914 0.084739484 -0.2531088 -0.07030077 0.018559355 0.021000804 0.20483002 -0.26538005
-0.19105563 -0.043213777 0.15388744 0.23840213 -0.29461378 -0.066858105 -0.0495404 0.19030139
0.17268704 -0.13946034 -0.09037348 -0.06278266 0.10360047 0.11670852 -0.061098747 -0.07900945
0.032587275 -0.12918995 -0.22494693 -0.005236296 0.14139049 -0.12845705 -0.16975567 0.11065425
-0.006602311 -0.2198157 -0.31853682 0.03861671 0.20833279 -0.049986653 -0.017356629 0.25608614
0.24545613 -0.20088598 0.045626346 -0.00082597753 0.018216234 -0.04394239 0.06843018 -0.05769763
-0.01160765 0.01547384 0.023274755 0.08269489 0.04557911 0.064263575 0.24324378 0.044911742
0.08303468 0.078173704 -0.037712272 -0.330242 -0.33000362 0.05042906 -0.09783915 -0.16326028
0.19196464 0.4242857 0.22997755 -0.0009621454 0.08613528 0.027418917 -0.2539889 -0.23481336
0.05388162 0.0018292284 -0.011524645 0.05017792 0.021466436 -0.025862848 -0.015641408 -0.0074735107
0.06018386 -0.031789172 -0.005736737 0.08431519 0.10516999 0.045889776 -0.20176543 -0.0043438654
0.096638925 -0.085937895 -0.35804027 -0.11325531 0.061869163 -0.13748634 -0.15918434 0.055498697
0.27099878 0.15761785 0.19900602 0.019496594 0.015490153 0.18680097 0.1235939 -0.14541861
-0.09881644 -0.037177388 0.12916924 -0.07823831 -0.12179528 0.08818028 0.28517297 0.15764484
0.11426351 0.24892399 0.22313492 0.14901718 -0.1804669 -0.06249698 -0.14276062 -0.3111075
-0.5349595 -0.5314234 -0.0603271 -0.096864484 0.0070358524 -0.08301778 -0.013401175 -0.05390405

conv2.bias f4 [16]
00000000: 5b94 223c 0046 34bd 3e08 15be 32f4 ba3e
00000010: effb ea3e 1d3a 8e3d 1fe3 efbe b90e f7bd
00000020: 7859 dcbd 7478 2a3e fa2c 16be 9d81 043e
00000030: b1ca e33d e32b bebd 5d22 efbb ff0e 043d
0.009923066 -0.04401207 -0.14553925 0.3651443 0.45895335 0.06944678 -0.46852967 -0.12063355
-0.10759252 0.16647512 -0.14665595 0.12940069 0.11122645 -0.092857145 -0.0072977976 0.032240864

fc1.weight f4 [256, 400]
00000000: 8606 e0bc 2518 863a b861 4dbd 0833 9cbc
00000010: cff5 183d 24f0 47bc ebc3 01bd 41d0 16bd
00000020: 25b4 273a 468b 4a3d cba9 aa3c d7ad bdbc
00000030: b297 eabc d2e1 12bd 6bcd 94bc 8c40 003d
00000040: 2b45 59bd 7bf5 47bc e0b2 23bc 8f3a b6bb
00000050: 57a7 5abd a135 f7bb 37a0 633c 9f0e 0e3d
00000060: 1362 103d 82f4 f3bc 7b05 323d 8de3 39bd
00000070: 48bd 303d 6b53 47bd fe37 ddba 8cca 67bd
00000080: 63de 723c db8a 6a39 60c7 043d 2409 ee3c
00000090: 7ee8 883c a4dc 03bd 73d9 403d fbdb 32bd
000000a0: ea25 c53c 56c7 4bbd 7d76 49bd 449e a9bb
000000b0: 65a3 18bc 31ec 0f3c 0e7d 553c cac5 59bc
000000c0: 1616 8ebc 8cc7 8abc 2fe2 2abd 60f2 543c
000000d0: 7a2f 88bc 5abe 07bd d2c5 72bc 06cc b33c
000000e0: d9b7 233b 72cb 64bd 0dfc 1dbd 52fb 85bc
000000f0: 29d8 e13c c66d f938 c0a9 0a3d 7c54 1a3c
00000100: ba1c a03c 9880 1d3c fda3 f3bc 9c36 32bd
00000110: b115 ac3c 7378 58bd 21de 22bd 44d8 6e3c
00000120: e535 b73c 5dcf 31bd 236b 783c 3baa e2bc
00000130: 0c25 9ebc cfc1 24bd 66d1 b83c a09c 333d
00000140: a1cb f93c d8aa 5fbc 618a d53c 2ced 1cbc
00000150: 37c8 e5bc 5dbe 043c 62a4 91bc 32a3 153c
00000160: d39f 0bbd 0f06 803a 1dbc 70bc e15f 013d
00000170: 4cce 84bc bc0d 5abc 0b10 8abb 55ad 70bd
00000180: 0079 763b 5cba f6bc df4e a33b 1949 243c
00000190: ddff ea39 4b6c 033d 5ff5 c73c f18b b8bc
000001a0: 1037 63bd 5e3e b83b cef8 42bc 11b6 11bc
000001b0: d823 12bd ca9f 36bd f10a c4ba 46b4 113d
000001c0: 6935 23bd ad77 7f3c 38b7 b93c 5b01 d7bc
000001d0: a7e5 b33c 6660 20bd c0a4 013d 99a3 da3c
000001e0: 6377 3fbd a6f6 a6bb 9fca aebc 0cb7 d3bc
000001f0: f129 fcbc e061 81bd 8138 babc 7ecf 37bc
00000200: 4e77 b63b ad32 62bd a1be 18bd 394f 2e3c
00000210: c0d9 2c3d 0d54 13bc dc23 543b bacc 1dbd
00000220: 7b04 b8bc f63b 33bd 0300 833c 5ff9 1f3d
00000230: aa9e 74bc 7d6b 6b3c c2ac 213c 7771 f23b
00000240: 4566 09bd 4a42 7c3c 9d8e 0bbd eae1 a2bb
00000250: 525d 963c 5403 53bc 193d 31bd de01 29bd
00000260: e040 2abd 678e 593c f3ca 3abd 6fbd 9f3b
00000270: d663 2dbc bf4b bf3c c05f 5dbd c25a 7fbc
00000280: 47f8 fe3c 0e15 fdbc ea2f 32bd 26d2 1ebd
00000290: b6d8 4bbd 6add bfbc 1038 84bc a9b4 7b3c
000002a0: 707a 83bc 4b6c e6bb 79e6 873c f81e 2fbd
000002b0: 4b73 013d 460a fdbc 7d27 e73c e47e c1bc
000002c0: 6b9f 9dbc 745d 8ebb cffc 74bd e315 51bd
000002d0: 4ed3 c7bc a9d0 f33c 973c cebc 92ed 91bc
000002e0: 376b d33b f714 843b cc33 0fbb 8015 d83b
000002f0: 2287 853b a477 0dbd 2c8b 183d 779b 1abd
00000300: aa53 c23c 9edf 903c c870 8a3c b6f4 74bc
00000310: 536a 48bd 4867 fdbc c6a7 c7bb 2411 2cbd
00000320: 8e40 0dbc d0d6 04bd 2794 c53b 73da 0dbd
00000330: ec0f 0fbd 2d9b 973c e561 22bc 0f9e 25bc
00000340: 94dd e03c 6e8d 36bd 2f99 14bd 46db 10bd
00000350: cc7a b33c f85c 03bd 39ff 3b3c 2c19 69bd
00000360: 5018 363c a8a5 0ebd ed5f bebb 0f0b 30bd
00000370: bdb7 25bd 961e c5bb e005 223c f67c 873c
00000380: 23b7 f4bc 3a8c 3fbc 8bbb 5abd 9a37 f8bc
00000390: 7d83 0a3d e673 34bd 950b 0dbd 3d8f 9c3b
000003a0: 822a 0e3d bfc4 ea3c 7d1e d43c 3bf3 f6bb
000003b0: 3ae8 47bd 2262 5dbc ef0a 3dbd efff 0c3d
000003c0: fc54 f43c b096 cd3a 34db cabc 5b52 64bb
000003d0: c8ff 0ebd 01ec 1bbd 4a41 e43b 675a f73b
000003e0: 4c39 373c 8ccb abbb c3db de3c dd38 bd3b
000003f0: 4dd3 42bd d0fe 3c3d 4195 53bd 746f ca3c
-0.02734686 0.0010230584 -0.05014202 -0.019067302 0.037343796 -0.01220325 -0.031680983 -0.0368197
0.0006397388 0.049449228 0.020832917 -0.023154182 -0.028636787 -0.03585989 -0.018164357 0.031311557
-0.05304448 -0.012204523 -0.009991378 -0.00556118 -0.053382244 -0.007544235 0.013893179 0.034681913
0.03524978 -0.029779676 0.043462258 -0.045383025 0.043149263 -0.048663538 -0.0016877649 -0.056589648
0.014823529 0.00022367707 0.0324167 0.029057093 0.016712423 -0.03219284 0.047082376 -0.04366682
0.02406593 -0.04975065 -0.049185265 -0.0051763374 -0.0093163 0.00878434 0.013030304 -0.0132917855
-0.017344516 -0.016940854 -0.04171961 0.01299724 -0.016624201 -0.033140518 -0.014817672 0.021947872
0.0024981408 -0.055858083 -0.038570452 -0.01635519 0.027568894 0.00011893692 0.033853292 0.009419557
0.019544948 0.009613179 -0.029741282 -0.04350911 0.021006437 -0.052849244 -0.03976262 0.014577929
0.022364566 -0.043410648 0.015162262 -0.027669063 -0.019304775 -0.040223893 0.022560786 0.04385054
0.030492606 -0.013651572 0.02606696 -0.009578031 -0.028049571 0.008102027 -0.01777858 0.009133147
-0.034087967 0.0009767431 -0.014693287 0.031585578 -0.016211651 -0.013308939 -0.0042133383 -0.058759052
0.0037608743 -0.03011816 0.0049837674 0.010027193 0.0004482259 0.032085698 0.024408994 -0.022527667
-0.055472434 0.005622669 -0.01190014 -0.008893506 -0.035678715 -0.04458598 -0.0014956874 0.035572313
-0.039845858 0.015592498 0.022670373 -0.026245764 0.021960093 -0.039154433 0.03165126 0.026689338
-0.046744715 -0.0050953208 -0.021336852 -0.02584412 -0.030781718 -0.06317496 -0.022732021 -0.011218904
0.0055684214 -0.05522411 -0.037291173 0.010639005 0.04219985 -0.008992207 0.0032370007 -0.03852532
-0.022463074 -0.043758355 0.015991217 0.03905618 -0.014930407 0.014368889 0.009867849 0.00739878
-0.033544797 0.015396664 -0.034071553 -0.0049707787 0.018355045 -0.012879211 -0.043271158 -0.041261546
-0.041565776 0.01327858 -0.045603704 0.004874877 -0.010582885 0.023351548 -0.054046392 -0.015585603
0.031124247 -0.030893829 -0.043502726 -0.038774632 -0.04976722 -0.023421008 -0.016140014 0.015362897
-0.016049594 -0.0070319525 0.01658939 -0.042754143 0.031604093 -0.030888688 0.028217072 -0.023620076
-0.019241055 -0.0043446366 -0.05981141 -0.051046263 -0.02439275 0.029762583 -0.025175376 -0.017813478
0.00645199 0.0040308195 -0.0021850942 0.00659436 0.004074947 -0.034537926 0.0372421 -0.03774592
0.023721535 0.017684754 0.016899481 -0.014950922 -0.048929524 -0.030933037 -0.006092998 -0.042008534
-0.008621348 -0.032431424 0.006029624 -0.034632158 -0.034927294 0.01850661 -0.009911035 -0.010108485
0.027449407 -0.04456847 -0.0362789 -0.035365365 0.02190914 -0.032071084 0.011474424 -0.05690877
0.011114195 -0.03482595 -0.005809775 -0.042979296 -0.04045843 -0.006015609 0.009889096 0.016539078
-0.029872483 -0.011691147 -0.05340151 -0.03029995 0.033816803 -0.044055842 -0.034434874 0.0047778175
0.034708507 0.028658269 0.025893444 -0.0075363196 -0.048805453 -0.013512166 -0.046153005 0.034423765
0.02982568 0.0015685167 -0.024762727 -0.0034839127 -0.0349119 -0.038066868 0.006965791 0.0075486186
0.011183094 -0.0052427705 0.0272044 0.005774601 -0.047564793 0.046141446 -0.05165601 0.024711348

fc1.bias f4 [256]
00000000: ced1 51bc fd5d 12be 0458 10bd b013 fc3e
00000010: 72e0 0d3f f57e 153e 725f 09bd f282 10be
00000020: 414c 6ebd ced2 323e 1383 98bd 542e 483e
00000030: b054 6dbd 318e 5bbd bfa7 a0be 945e adbc
00000040: 8231 e33e 9024 14bd 7988 703e 9835 1d3d
00000050: 8769 70bd 67e6 33be 2c95 91bd c4d0 1e3f
00000060: a0c0 c1bc fa46 f33e 9124 f43a af00 493e
00000070: dc79 3b3e 5629 fc3e 9c1b 2bbd 4520 7abd
00000080: f8cd a73c 8576 05bb 115e 2cbd d0af 81bd
00000090: 46ce 853e 0273 ce3e 0df6 cb3e 0f21 44bc
000000a0: a1fc c3bc 3aeb e33b 5408 c9bc a415 8f3e
000000b0: 2dd5 893e 222e 4d3d 5455 423e 8eb4 1b3f
000000c0: 7f08 8dbe 1779 9c3e 7835 10be c95d 87bd
000000d0: 8a25 963e eba6 b53d fa0f f83e 68de 193e
000000e0: 6584 433e f946 173f 9942 40bc 9e56 b33e
000000f0: b374 01bd 6418 00be 3581 a43d f03b a7bd
00000100: 6835 9ebd 1964 5e3d 090d 403e 1680 113d
00000110: d00a dd3e ce50 a1bd 29ae 6ebd 3f98 723c
00000120: 2f43 56bd 9b8b 97bd 138b b73c 5cf1 dd3e
00000130: 0450 40bd 67c2 233c 974d a3bd 9798 073e
00000140: e67e c6bc 0ea0 3abd 502d 9f3e 6569 7b3e
00000150: 8437 003f 4aea 8d3d be9a 163e 2efb a13e
00000160: 5f44 39be e5ed c13e 2a95 92bc 7037 63bc
00000170: 5001 a23e f6c8 203f b44e 503c bc63 dabd
00000180: 574a f73e 43a3 8abb 4a1c ad3e 3bdb 68bd
00000190: af64 733d 09fb d43e 7ca4 8abc 1706 9b3e
000001a0: a545 c4bd 6bbe e83d c20f dc3b 48ba 523e
000001b0: cf6a b93e 6f73 7f3b c724 aebc 4211 603e
000001c0: f41c 3d3c 1543 4f3e 7a00 bc3e 4baa 0c3f
000001d0: e90e 9ebd 16f6 7cbd 0f0a 65bd d47b ee3c
000001e0: 1b06 a8bd 628f be3e 5d6b d4bd 2d94 82bd
000001f0: 6867 89bd acfd 17bd 40d8 1f3d a9da 57bd
00000200: c7c5 093b 4498 573e 8a9b 633e 07ac 153e
00000210: 939d a9bc d06b d1bb 2f42 b23d f811 f83e
00000220: 23ed d23d a42a 89bc 0401 4cbd c84e 183e
00000230: 75ba b23c 9c57 75bd 30c6 43be 047e 1cbe
00000240: 0080 e83e db5b 52bd 5e7e 123c a2f8 8dbd
00000250: 39c7 ff3e 05a7 123d ffb5 90bd 08a0 bb3b
00000260: e0ae 79bd 4466 58bd a6c7 6dbd c6a2 e9bd
00000270: 0958 253f 7569 8f3e 2253 e73d 9c89 073e
00000280: 6e6b 1d3e 2888 e33a 1b3e c03e 7672 993c
00000290: 9b9c 063f db96 37bd ba24 54bd 3f6f bf3d
000002a0: 7156 7f3e 1cdc 57bd 1120 dabc b5d4 b2bc
000002b0: 7ad2 2c3c 1d19 7d3c ea70 563e bded 96bd
000002c0: 9a80 81bd 8524 8dbd 390b b2bd 5826 e53d
000002d0: 329d ed3c 8d56 74bd c1bf 383e 8cf1 873e
000002e0: 8705 b53e 93b4 ddbd a2be e43c 1499 553e
000002f0: 2dcc 9c3d 0618 22bd 8208 bb3e 4f42 e03d
00000300: 3b2f da3e 0832 48be 84f6 123e 093b 10be
00000310: 1d6b 42bc 4cdc 94bd c248 fb3e f453 a4be
00000320: aa2d 7a3e a668 aa3e 41ac bf3d 480e 8d3e
00000330: fc6f ac3e f961 753e 308d e4bc c0b1 fabc
00000340: 6bea d73e 85a8 b7bd d1e3 7a3e 09c4 0dbd
00000350: 091a b43d f15b 5f3e 652d 8cbd cff3 afbc
00000360: 5d97 ae3e de34 16bd 2243 6e3d e51a a93e
00000370: 00b0 8e3d 9514 2f3e 304c a8bd ccaf 9cbe
00000380: 9d17 29be d897 a13c b55e 1bbc 1328 26bd
00000390: 1624 77be f162 73ba 10f1 c23d 1e7b 9fbd
000003a0: 0eea 2b3e 163f f6bc afb1 ec3e 34a5 d23e
000003b0: 5210 86be 0ae5 a73e c63c 80bd 76ab b4bc
000003c0: d98e 25bd 3c6d 0bbd 8bad f33e ac19 75be
000003d0: 863c 8cbc 4b51 9dbc 297b d3bd 57e5 ea3d
000003e0: 2463 403e b59c 86be a129 bb3e d876 aa3d
000003f0: 035f bb3e 2a64 f33e 19da 823d f18d 803e
-0.012806369 -0.14293666 -0.03524019 0.4923377 0.554206 0.14599212 -0.03353829 -0.14112452
-0.05817819 0.17463228 -0.074468754 0.19548923 -0.057942092 -0.0536024 -0.3137798 -0.021163262
0.4437371 -0.03616768 0.2348956 0.03838119 -0.05869439 -0.1756836 -0.071085304 0.620373
-0.023651421 0.47515088 0.001862662 0.19629167 0.18308204 0.49250287 -0.041774377 -0.06106593
0.020483956 -0.0020364833 -0.042081896 -0.06332362 0.26133937 0.4032212 0.3983616 -0.011970772
-0.023924174 0.0069555314 -0.024540104 0.27946198 0.26920453 0.050092824 0.18977863 0.6082238
-0.27545545 0.30561134 -0.14082897 -0.06609685 0.29325515 0.08869728 0.4844969 0.15026248
0.19093473 0.5909267 -0.011734628 0.3502702 -0.031605434 -0.12509304 0.08032457 -0.08165729
-0.0772503 0.05429468 0.18754973 0.035522543 0.43172312 -0.078767404 -0.05827156 0.014806806
-0.052310165 -0.073996745 0.022405183 0.43348205 -0.04695131 0.00999508 -0.079737835 0.13241802
-0.024230432 -0.045562796 0.31089258 0.24551924 0.5008471 0.06929453 0.14707467 0.31636947
-0.18092488 0.37876812 -0.017893393 -0.013868198 0.31641626 0.6280664 0.012714077 -0.10663554
0.48298904 -0.004230888 0.33810645 -0.0568497 0.05942219 0.41597775 -0.016924135 0.30278084
-0.09583596 0.11364444 0.0067157457 0.20578873 0.362143 0.0038978716 -0.021257771 0.21881583
0.0115425475 0.20240434 0.36719114 0.54947346 -0.07717688 -0.061758123 -0.055917796 0.02911178
-0.082042895 0.37218767 -0.103720404 -0.063759185 -0.06709176 -0.037107155 0.03902459 -0.052698765
0.0021022425 0.21054178 0.22227302 0.14616404 -0.02070502 -0.006391026 0.0870403 0.4845121
0.102991365 -0.016743965 -0.049805656 0.14873803 0.021817425 -0.059898004 -0.19118571 -0.15282446
0.45410156 -0.05135713 0.008941261 -0.069321886 0.49956682 0.035803813 -0.07065963 0.0057258643
-0.06095779 -0.052831903 -0.058051728 -0.11408 0.64587456 0.28010145 0.11295153 0.13236088
0.15373012 0.0017359303 0.37547383 0.018731337 0.5258271 -0.0448216 -0.051792838 0.093473904
0.24935319 -0.052700147 -0.026626619 -0.021829942 0.010548228 0.015447882 0.20941511 -0.07369564
-0.06323357 -0.06891731 -0.08693547 0.11188954 0.02900562 -0.059652854 0.18041898 0.26551473
0.3535578 -0.108254574 0.027922932 0.20859176 0.07656131 -0.03957369 0.36529928 0.10950147
0.4261416 -0.19550335 0.14351851 -0.1408502 -0.011866358 -0.07268581 0.49078947 -0.320953
0.24431482 0.33282965 0.09359027 0.27549958 0.33679187 0.23963155 -0.027899355 -0.030602336
0.42171034 -0.089676894 0.24500968 -0.03461078 0.08794028 0.21812417 -0.06844596 -0.021478562
0.34099856 -0.03667151 0.05816949 0.3302833 0.06967163 0.17097695 -0.082176566 -0.30602872
-0.16512914 0.019725725 -0.009483029 -0.04056556 -0.2413486 -0.0009284458 0.09518635 -0.077871546
0.16788504 -0.030059379 0.46229312 0.41141665 -0.26184326 0.3279193 -0.062615916 -0.022054415
-0.040419433 -0.03403972 0.4759334 -0.23935574 -0.017118704 -0.019203803 -0.10326225 0.11469524
0.18787819 -0.26291433 0.36555198 0.08323449 0.36595926 0.47537357 0.06389255 0.25108293

fc2.weight f4 [10, 256]
00000000: 6572 743c a37c ba3d 6e2a 7cbb dd69 88bd
00000010: bb23 adbe bf7d a5bd 0313 bf3d a98a 8ebd
00000020: 0ca7 f63c a749 8f3d fb86 623e a511 33bd
00000030: 4263 a93c d4b2 9ebd af6d 353d a6f7 82bd
00000040: df8b a5bd e506 d93d c73c 3abe 4a8c a53d
00000050: fe0e 06bd 568c eebd 02de acbd 6b66 7ebe
00000060: bdfb 4cbe a2d8 f33d 4562 263d 46e9 433e
00000070: 793f c9bd ab87 b23a 9b0e 51bd f29e 163d
00000080: a01b e53d 5654 e13c ea07 a1bd 16cc 78bd
00000090: 7d03 3abe a80b 7cbd 2f9d a3be 3430 103d
000000a0: 7619 bc3c 8207 9e3c b24a 483d 6019 b6bd
000000b0: 81b4 e43c 4f1e 42bd 1e68 4abc 33a5 c0be
000000c0: f5b3 b03c 1530 f6bd 0223 cdbd 3592 4c3c
000000d0: 1204 45be ec2f c13c a1d9 6dba 513b a03d
000000e0: ee5a 4bbe 9b9c a9be 0417 b63d 2a2b 893d
000000f0: bd64 45bd a826 843c 5bec bd3d 2578 01be
00000100: 8aa0 c5bc c4df c23d 01e6 3ebe 7a3c b2bc
00000110: 2557 b8be c914 453e c72e bcbc c648 843b
00000120: 5813 2fbe 6183 f13d e93b d93b 29fa 55bd
00000130: 0dc8 9cbd 2030 2e3c d82f 40be 4521 e73d
00000140: 05ec 173d 0100 203d 718b 043e 492d 03be
00000150: 1b39 29be 0ebb 33be 6153 183e 5ab0 b3bd
00000160: bbf2 da3d fc94 a83d 4d1d cebb c908 ce3d
00000170: 5fc3 3b3e ec35 e73d 9e7c 15bd 7873 693e
00000180: 4902 94be a980 133d f3aa 20bc 4f88 ca3b
00000190: 6ce1 d73d 196b 70be 1979 183c cd1d 323e
000001a0: f6ce 01bb 6a20 aebe 40da c93c dfc8 9e3d
000001b0: 36ed 63be 9987 34bd 42f7 71bc 4b13 103e
000001c0: 54ea df3c 1836 8f3d 630d 9d3c 3962 89be
000001d0: e732 10be 3e44 423d 55e1 90bd 9b9c 8b3d
000001e0: 09c3 c5bd 2f21 90be 5b66 b1bd 6902 363b
000001f0: 1cfc e5bd 8309 afbb 19d8 643d 11f2 853b
00000200: 2d9a 373c 2860 be3d 0b36 c53d d6a8 c9bc
00000210: 9863 1ebe 3b15 0a3e e256 dfbd 592f e9bd
00000220: 4352 44bd d1df ad39 892e 0bbd e8f7 4f3d
00000230: ef80 c0bc 84c2 66bc 51b0 d5bd 2ab3 2dbe
00000240: 69f8 163d 2266 a03c 7e95 143d 5087 48bc
00000250: 3c7c dd3d d7f2 d9bd 2874 173c a5a8 633d
00000260: ebd4 65bd 44b0 d4bc ff5d 6a3c 23cb f93d
00000270: 8026 953d 8634 b83d 3f99 d63d ba54 77bd
00000280: 1732 833d d819 523c 8841 84be 4a25 11be
00000290: 73fd dd3d ab01 05bc de3a 453d 1686 08be
000002a0: 0666 72be 7ae8 0fbd 9f85 e9bc b022 e23d
000002b0: 539c f4bd 0d39 f1bc a91d b73d 5274 6c3d
000002c0: d3f0 713d 70e0 b8bd e3bc 523c 6756 62bd
000002d0: 31bb 8abd 646a 92bd 0b7b a83c 4f2f e23c
000002e0: a584 1dbe 5052 8c3d f7c1 db3d ce3b 9f3d
000002f0: ca57 193e f672 103b e1c0 6dbe 0138 b23c
00000300: 5a59 313e 5d4c 74bc 5c70 ed3b 86f2 333d
00000310: 0090 c4bc 9ee5 adbd 3596 3ebe 96e9 d23c
00000320: 8766 a4bc 8089 2b3e 0d8f 98be 5b4d d43d
00000330: a7ca 02be 376d af3b 01e3 7cbc 1df8 4c3d
00000340: 459b 0fbe 34cc 0cbc 7220 88be 89ed 443d
00000350: dd93 71bc 88e1 98be 5a0e 55bd 3235 ad3c
00000360: 9ee5 3fbd ecde de3b fe73 95be bfcc 73bd
00000370: 817d e63d 2c28 393d 6975 b1bc 5dca d33d
00000380: 5453 ce3d fbc2 36bd 0e02 aebd 3a18 76bc
00000390: e46d 983d ed90 afbc c2d7 823d f1e7 423e
000003a0: cc9d b03e 0971 063d 66dc d9bd 9317 98be
000003b0: 680f f53d 68f6 69be 65f7 323b b987 a13d
000003c0: 1094 15be ea46 c23c 834a 89bd 3aee 033d
000003d0: f3a4 013c aead 13bd 4d40 0c3e 4045 b63d
000003e0: b839 383c 7622 b73d 85a5 d3be a923 2c3d
000003f0: 197b bbbd 434f a73d c473 0cbe 8849 23be
0.014919852 0.09105804 -0.0038477439 -0.06660817 -0.33816323 -0.08080625 0.09329798 -0.06960041
0.030108951 0.0699647 0.22121803 -0.043718 0.020677213 -0.077489525 0.044294056 -0.063948914
-0.08083319 0.10597018 -0.18187247 0.08083399 -0.03272914 -0.11647861 -0.08440782 -0.24843757
-0.20017906 0.11906554 0.04062106 0.19131956 -0.098265596 0.0013620754 -0.05103932 0.036772676
0.1118691 0.027506035 -0.078628376 -0.060741507 -0.18165393 -0.061534554 -0.3195586 0.03520222
0.02296136 0.01929069 0.04889936 -0.08891559 0.027918102 -0.047392186 -0.012353925 -0.37626037
0.021570185 -0.1202089 -0.10016443 0.01248603 -0.19239834 0.023582421 -0.0009073262 0.07823814
-0.19858906 -0.33127293 0.08891109 0.06697686 -0.048191775 0.016131714 0.09273597 -0.12643488
-0.024124403 0.09515336 -0.18642427 -0.021757353 -0.36003986 0.1924621 -0.022971524 0.0040369956
-0.17097223 0.11792637 0.0066294563 -0.052240524 -0.07655344 0.010631591 -0.18768251 0.112856425
0.03709032 0.039062504 0.12943818 -0.12810244 -0.1652569 -0.17551824 0.14875557 -0.08773871
0.106908284 0.082315415 -0.006290114 0.100602694 0.18336247 0.11289582 -0.036495797 0.22797954
-0.28907993 0.03601137 -0.0098063825 0.0061808 0.10541043 -0.23478355 0.009306216 0.1739418
-0.0019807196 -0.34009105 0.024640203 0.07753157 -0.22258458 -0.04407463 -0.0147684235 0.1406986
0.027333416 0.069927394 0.019171422 -0.2683275 -0.14081918 0.047428362 -0.07074229 0.068169795
-0.09656341 -0.28150317 -0.08662101 0.0027772433 -0.11229727 -0.00534171 0.05587015 0.0040876945
0.011206192 0.09295684 0.096294485 -0.02461664 -0.1546768 0.13484661 -0.109052435 -0.11385984
-0.047930013 0.00033163888 -0.033979926 0.05077353 -0.02349898 -0.014084462 -0.1043402 -0.16962877
0.036857996 0.01957995 0.03627538 -0.012239292 0.108147115 -0.10642021 0.009244002 0.055580754
-0.056111258 -0.025962956 0.014304637 0.121969484 0.07282734 0.08994393 0.10478448 -0.060383536
0.06406038 0.012823544 -0.25831246 -0.14174381 0.10839357 -0.008118073 0.048151843 -0.133324
-0.23671731 -0.035133816 -0.028506098 0.11041772 -0.11943879 -0.02944615 0.08941204 0.05772812
0.05906756 -0.09027183 0.012862417 -0.05525818 -0.06773985 -0.07149199 0.020566484 0.02761045
-0.15382631 0.06851637 0.10730355 0.07775079 0.14974895 0.0022041178 -0.23218109 0.02175522
0.17319241 -0.014910785 0.0072460603 0.04393246 -0.023994446 -0.08491062 -0.18611987 0.025746148
-0.02006842 0.16751671 -0.2979664 0.10366317 -0.12772618 0.0053535956 -0.015434981 0.050041307
-0.14024074 -0.008593608 -0.26587254 0.048078094 -0.014744726 -0.29859567 -0.05201564 0.02114353
-0.04684984 0.0068014767 -0.29190058 -0.059521433 0.11254407 0.045204327 -0.02166243 0.10341332
0.10074487 -0.04461954 -0.08496486 -0.0150204245 0.07442835 -0.02143141 0.06388809 0.19033791
0.3449539 0.032822642 -0.10637741 -0.29705486 0.11965829 -0.22847903 0.0027308103 0.07887215
-0.14607263 0.023715455 -0.06703665 0.032209612 0.007912862 -0.036054306 0.13696404 0.08899927
0.01124423 0.0894212 -0.4133722 0.042026196 -0.091543384 0.08169415 -0.13716036 -0.15946019

fc2.bias f4 [10]
00000000: 63d1 8cbe 5e99 5bbe 9875 82be 0d7d 623e
00000010: d5cc ab3e c894 853c 09e0 9dbb bc9f 42bd
00000020: 1c94 1a3e 3bc4 2cbd
-0.275035 -0.21445224 -0.25480342 0.22118016 0.33554712 0.016306296 -0.004817967 -0.047515616
0.15095562 -0.042179327
